TrainData.pth (torch, 4764 bytes, 6 tensors)

l1.weight f4 [8, 33]
0	0xbdc76773	-0.09736528
1	0xbec8159e	-0.39078993
2	0x3ea7ebbf	0.32797047
3	0xbe88b271	-0.2669864
4	0xbe81b56d	-0.2533373
5	0x3f87ab7e	1.059921
6	0x3f6ecff5	0.9328607
7	0x3e47b2fc	0.19501871
8	0xbedf2f22	-0.43590647
9	0xbf2e28a6	-0.68030775
10	0xbed3a890	-0.4133954
11	0xbea4039b	-0.32034
12	0xbea2fe30	-0.31834555
13	0xbe9bf663	-0.30461416
14	0xbf04596f	-0.51698965
15	0xbf0a15c8	-0.53939486
16	0xbea7944b	-0.32730326
17	0x3e21adc5	0.15788944
18	0x3f893d74	1.0721879
19	0x3f1f9b50	0.62346363
20	0xbed8cf1b	-0.4234551
21	0x3e82ce56	0.25548047
22	0x3dd552cc	0.10416183
23	0x3ee21d71	0.44163087
24	0xbe2b7eb4	-0.16747552
25	0xbf5f9bec	-0.8734729
26	0x3f04214c	0.51613307
27	0xbeab02c6	-0.33400553
28	0x3f591613	0.8479931
29	0x3ec7ffba	0.3906229
30	0xbeca18df	-0.394721
31	0x3ed52f7c	0.4163779
32	0x3f89d83b	1.0769113
33	0x3e8ff215	0.2811438
34	0x3f002e8e	0.50071037
35	0xbd1ad559	-0.03780112
36	0xbf762ba3	-0.96160334
37	0xbf8121b1	-1.0088407
38	0xbf819173	-1.0122513
39	0xbf363dd2	-0.7118808
40	0xbe133c1e	-0.14378402
41	0x3ef8e10d	0.486092
42	0x3ed8b86b	0.423282
43	0x3f29e436	0.6636385
44	0xbf363b2b	-0.71184033
45	0xbf3633d5	-0.7117284
46	0xbf363110	-0.71168613
47	0x3f506bb5	0.8141435
48	0x3f1735aa	0.5906626
49	0xbf362fe4	-0.71166825
50	0xbc1d045b	-0.009583558
51	0xbe48252e	-0.19545433
52	0x3f9a8c00	1.2073975
53	0x3f173a6e	0.5907353
54	0xbe81dabf	-0.25362203
55	0xbea38f17	-0.31945106
56	0xbf363392	-0.7117244
57	0x3e7504ef	0.23927663
58	0xbf623fa4	-0.8837836
59	0x3f9e4314	1.2364221
60	0xbf3636d3	-0.71177405
61	0xbe61ab93	-0.22038107
62	0x3e40abab	0.18815486
63	0x3ee99a8c	0.45625722
64	0x3e56e3c6	0.20985326
65	0x3d28f52b	0.041249435
66	0x3c9ccab0	0.019139618
67	0xbe082891	-0.13296725
68	0xbd77d732	-0.06050796
69	0x3d530a10	0.05152327
70	0xbc8af5a0	-0.016962826
71	0x3de4fed0	0.11181414
72	0x3da82120	0.08209443
73	0x3d800fe4	0.06253031
74	0x3e2d8474	0.16945058
75	0x3dc4d25c	0.09610435
76	0xbe0426a8	-0.12905371
77	0x3d01bb14	0.031672552
78	0xbe1ac44b	-0.15113942
79	0xbd99b5ca	-0.07505377
80	0xbd5c7c28	-0.053829342
81	0x3d4de758	0.050269455
82	0x3e0d3432	0.13789442
83	0xbd3190cc	-0.04335098
84	0xbd6b6ea6	-0.05747857
85	0xbd92039f	-0.07129597
86	0x3de04ed4	0.10952535
87	0xbdd4fd26	-0.10399847
88	0x3e0e1f54	0.13879138
89	0x3dbecc98	0.09316367
90	0x3da475c8	0.080302775
91	0x3e04231c	0.12904018
92	0xbd4727c0	-0.048621893
93	0x3dd91b5c	0.106009215
94	0xbe1b57d4	-0.15170223
95	0xbe27109d	-0.16314931
96	0xbd890fd0	-0.06692469
97	0x3d4cd4e4	0.050007716
98	0xbcbf6710	-0.023364574
99	0x3de39b38	0.1111359
100	0x3f2d491e	0.6768969
101	0x3ec04a4a	0.37556678
102	0xbf42134f	-0.7581071
103	0x3fb8f9b7	1.4451207
104	0x3f12e371	0.573783
105	0x3f037f20	0.5136585
106	0xbef321e2	-0.47486788
107	0x3e219daf	0.15782808
108	0x3dc648ea	0.09681876
109	0xbf2de584	-0.6792834
110	0xbf16ac6f	-0.5885686
111	0xbf147d13	-0.5800335
112	0xbf1587d2	-0.5841037
113	0x3e4be875	0.19912894
114	0x3e827f56	0.25487775
115	0xbf193002	-0.5983888
116	0xbf0a62a0	-0.5405674
117	0x3f6cee2b	0.92550915
118	0x3ecc464b	0.3989738
119	0xbf481732	-0.78160393
120	0xbe82f22e	-0.25575393
121	0xbf390575	-0.7227395
122	0x3faa344f	1.3297213
123	0xbb4d2517	-0.0031302625
124	0xbf61c33b	-0.88188523
125	0x3e77f85d	0.24215837
126	0xbf15bc50	-0.5849047
127	0x3f18d304	0.59696984
128	0x3e9e0be9	0.30868462
129	0x3f15268c	0.5826194
130	0x3e8b1c20	0.27169895
131	0x3f71b4eb	0.94416684
132	0xbe658ea9	-0.22417702
133	0x3e92808e	0.28613704
134	0xbd47f7ac	-0.048820183
135	0x3fa4e1bf	1.2881392
136	0xbecbe3a1	-0.39822105
137	0x3fc06bda	1.5032914
138	0x3f9fbc65	1.2479368
139	0x3f4e4090	0.80567265
140	0xbf20a735	-0.6275514
141	0xbf1880e7	-0.5957169
142	0xbf08f638	-0.535007
143	0x3ee9b62a	0.45646793
144	0x3eab8cba	0.33505803
145	0x3ea16622	0.31523234
146	0xbf4a14d0	-0.7893801
147	0xbe76a602	-0.24086764
148	0x3ebdd580	0.3707695
149	0x3f334c1f	0.70038027
150	0x3f840a6c	1.031568
151	0xbddd3a97	-0.10802191
152	0xbf1db069	-0.61597306
153	0x3ef7e6e4	0.48418343
154	0x3f3b6292	0.7319728
155	0xbf145b04	-0.5795138
156	0xbe952ae1	-0.29134277
157	0x3f2f2dbd	0.68429166
158	0xbf088096	-0.53321207
159	0x3e9fcaf2	0.31209522
160	0x3f2442d2	0.6416446
161	0x3f4ece4c	0.80783534
162	0x3e887b9e	0.26656812
163	0xbdef4cd5	-0.116845764
164	0x3f5644e8	0.8369889
165	0xbdc7518e	-0.09732352
166	0xbed5e45e	-0.41775793
167	0x3ebfbae8	0.37447286
168	0xbea2f9dc	-0.31831253
169	0xbf0bbb36	-0.54582536
170	0xbe5d93d3	-0.21638422
171	0xbe548e8e	-0.20757505
172	0x3e954b13	0.2915884
173	0x3ef92a10	0.48664904
174	0x3ea9e4b6	0.33182305
175	0x3e9faa1f	0.3118448
176	0x3f54875e	0.83019054
177	0x3f14832d	0.5801266
178	0x3f2f2803	0.6842043
179	0x3ea96e6b	0.33092055
180	0x3c81b6e2	0.015834276
181	0x3f1ab226	0.6042808
182	0x3ed109d6	0.40827817
183	0xbe76c88e	-0.24099943
184	0xbef194e4	-0.47183907
185	0x3ef6d616	0.4821021
186	0x3eb5cb89	0.35506848
187	0x3d954a61	0.07289577
188	0xbf0bb79b	-0.54577035
189	0x3dbf3664	0.09336546
190	0x3f3d4add	0.7394236
191	0xbf0baefc	-0.5456388
192	0x3ed838ca	0.42230827
193	0xbf9175d5	-1.1364084
194	0xbf9e88fb	-1.2385553
195	0xbee21b55	-0.44161478
196	0x3ec64f04	0.3873216
197	0xbe9bfd57	-0.3046672
198	0x3c861da5	0.016371557
199	0xbf438169	-0.7636934
200	0xbf109889	-0.5648275
201	0x3f89df6d	1.0771309
202	0xbf8bd54e	-1.092447
203	0xbf0eb507	-0.55744976
204	0xbe6e5822	-0.23275807
205	0x3f65b2c2	0.8972589
206	0xbdc6fc95	-0.09716145
207	0xbd6ff11e	-0.058579557
208	0x3f15aeae	0.58469665
209	0x3e7cf511	0.2470286
210	0x3d8d81fd	0.06909559
211	0x3e0367b8	0.12832534
212	0xbf09617d	-0.5366438
213	0xbdb6db31	-0.08928526
214	0x3df0be5c	0.11755058
215	0x3f219621	0.63119704
216	0x3eb60d1b	0.35556874
217	0x3f8b08ed	1.0862099
218	0x3eec623b	0.46168694
219	0x3f2848ea	0.6573626
220	0x3f439463	0.76398295
221	0xbf550241	-0.83206564
222	0xbd76ecdd	-0.060284484
223	0x3e596c87	0.21232806
224	0x3fb5c449	1.4200526
225	0x3e81aa8b	0.25325426
226	0x3ed15dec	0.4089197
227	0xbf122a1e	-0.57095516
228	0xbf474b53	-0.7784931
229	0xbe4cb697	-0.19991527
230	0x3e880338	0.26564956
231	0x3e5a53dd	0.21321054
232	0x3f5f5a1d	0.87246877
233	0xbebe4a94	-0.37166274
234	0xbf287c70	-0.65814877
235	0xbe6bbba9	-0.23020805
236	0x3f851592	1.0397208
237	0x3f452ac3	0.77018374
238	0xbf158d24	-0.5841849
239	0xbe2672de	-0.16254756
240	0xbe3f479f	-0.18679665
241	0x3d10b7ac	0.035331413
242	0x3f3e04a8	0.74225855
243	0x3f178f22	0.5920278
244	0x3f1931ab	0.5984141
245	0x3eb0364c	0.34416425
246	0x3f29c943	0.66322726
247	0x3f2a94fb	0.66633576
248	0xbe7fe4c0	-0.24989605
249	0xbf22e3b8	-0.6362872
250	0xbf4a7ee1	-0.7909985
251	0xbea4d7c4	-0.32195866
252	0xbd38a2db	-0.045077186
253	0xbf28d9ac	-0.6595714
254	0x3ea45728	0.32097745
255	0x3eeee6de	0.46660513

l1.bias f4 [8]
0	0x3ed8c175	0.42335096
1	0x3f3636e2	0.71177495
2	0xbe3055eb	-0.17220275
3	0x3f481423	0.78155726
4	0x3f680809	0.9063726
5	0x3f0bb2e6	0.5456985
6	0x3f55006e	0.8320378
7	0x3f4d6c03	0.8024294

l2.weight f4 [8, 8]
0	0x3f0e6607	0.5562443
1	0x3f9348a3	1.1506542
2	0x3e3aa662	0.18227533
3	0xbe8ec632	-0.27885586
4	0x3f6c3e2b	0.9228236
5	0xbf6ffa45	-0.93741256
6	0x3ffa26cf	1.9543093
7	0xbfad7801	-1.3552247
8	0xbe36ef40	-0.17864704
9	0xbea4b339	-0.32167986
10	0x3e25a7fe	0.16177365
11	0xbe7eb9ba	-0.24875537
12	0xbe3c70a6	-0.18402347
13	0xbd194680	-0.03742075
14	0x3e54496a	0.2073113
15	0x3e0bd12c	0.13654011
16	0x3fcb06cc	1.5861449
17	0xbfc3b924	-1.5290875
18	0x3e83cdb1	0.25742868
19	0x3fca617a	1.5810997
20	0x3eae2209	0.34010342
21	0xbf749664	-0.9554198
22	0xbe8dd86c	-0.2770418
23	0xbf18d71c	-0.5970323
24	0x3e05e099	0.13073958
25	0x3db7e586	0.08979325
26	0xbeb48c21	-0.3526316
27	0xbe4ef91d	-0.20212217
28	0xbdb839ef	-0.08995425
29	0xbe668085	-0.22509964
30	0xbd515ec7	-0.051115777
31	0xbe497d95	-0.19676812
32	0x3ef2ceeb	0.4742349
33	0x3fdbf57a	1.7184289
34	0xbe81d1da	-0.25355417
35	0x3f57acdd	0.84248143
36	0xbf2a6353	-0.66557807
37	0x3f362682	0.7115251
38	0x3f36a504	0.71345544
39	0x3f7273a2	0.9470769
40	0x3f45b12b	0.7722346
41	0xbf8a06e0	-1.0783348
42	0xbdf6c1de	-0.12048696
43	0x3fac79dc	1.3474689
44	0x3ff6b368	1.92735
45	0xbf96fa36	-1.1795108
46	0xbfa51a07	-1.2898568
47	0x3fc8c046	1.5683677
48	0x3fb2937c	1.3951259
49	0xbe03709b	-0.12835924
50	0xbe0abe9d	-0.13549276
51	0xbd4e1154	-0.050309494
52	0x3fdadce7	1.7098664
53	0xbf50d303	-0.8157198
54	0x3f8d171e	1.102268
55	0xbf93d646	-1.1549766
56	0xbe2d3bc2	-0.16917327
57	0xbf944736	-1.1584232
58	0x3ea7f1af	0.32801577
59	0xbf96b67c	-1.177444
60	0x3fb338d3	1.4001716
61	0x3fbeb18e	1.4897935
62	0x3f9546e9	1.1662265
63	0x3fa9f2e8	1.3277254

l2.bias f4 [8]
0	0x3d15f285	0.036608238
1	0xbea4edea	-0.32212764
2	0x3e6ca8e0	0.23111296
3	0xbe044db4	-0.12920266
4	0x3f434dab	0.76290387
5	0x3f2cab7d	0.6744917
6	0xbeb91fdd	-0.36157122
7	0x3f3d19ba	0.7386738

l3.weight f4 [9, 8]
0	0x3ee2c871	0.4429355
1	0x3dd7daf4	0.10539809
2	0xbfbf4bb1	-1.4944974
3	0x3d11a3fb	0.035556775
4	0xbfa4ea7d	-1.288406
5	0xbf470ea2	-0.777567
6	0x3f5db87f	0.86609644
7	0x3eaec666	0.3413574
8	0xbf1b1dec	-0.6059253
9	0xbe5d88f5	-0.21634276
10	0x3f83de7b	1.0302271
11	0xbe9ab79c	-0.30218208
12	0xbf556837	-0.83362144
13	0x3f3eadcf	0.7448396
14	0xc00f451b	-2.2385929
15	0xbff864c9	-1.9405757
16	0xbeed91b2	-0.4640022
17	0x3d60f1f8	0.05491826
18	0x3e9e659b	0.30936894
19	0x3e333c94	0.17503577
20	0xbfbca21a	-1.473697
21	0x3eeb0b31	0.45906976
22	0xbd5539e9	-0.05205718
23	0xbd2f5f54	-0.04281552
24	0x3f1589c0	0.58413315
25	0x3eb2a3cf	0.348906
26	0xbf24d644	-0.64389443
27	0x3c76f1c4	0.01507229
28	0xbe368d91	-0.17827441
29	0xbfbbbc78	-1.4666891
30	0xc00d799c	-2.2105474
31	0x3edfe069	0.437259
32	0xbfdfe94d	-1.7493073
33	0x3e61dd36	0.22057042
34	0xbf9e8646	-1.2384727
35	0xbe7542e5	-0.239513
36	0xbf851a75	-1.0398699
37	0xbedfcd85	-0.43711486
38	0xbf7a83db	-0.97857445
39	0x3fc8017d	1.5625454
40	0xbfcd4739	-1.603736
41	0x3e2e41ce	0.1701729
42	0xbf910f65	-1.1332823
43	0xbd5d0e24	-0.053968564
44	0x3f6508a5	0.89466316
45	0xbfa3b211	-1.2788717
46	0xbf171081	-0.5900956
47	0xbfefc9a8	-1.8733416
48	0x3ec492a3	0.38393125
49	0xbd101d58	-0.035184234
50	0x3f0b5b50	0.54436207
51	0x3e2cc655	0.16872533
52	0xbf74562f	-0.95444006
53	0x3dff310b	0.12460526
54	0x3f297e0a	0.66207945
55	0xc003c0b9	-2.0586379
56	0x3f6fe8b6	0.93714464
57	0xbe86c990	-0.26325655
58	0xbe92419b	-0.28565678
59	0xbe1c9cc8	-0.15294182
60	0xbed14e46	-0.4088003
61	0xbf7bb975	-0.9832986
62	0x3f22bd37	0.6356997
63	0xbff2c40a	-1.8966076
64	0xbee50bed	-0.4473566
65	0xbe003e95	-0.12523873
66	0xbfddf536	-1.7340457
67	0xbe28809b	-0.16455309
68	0xbe5e602b	-0.21716373
69	0x3f87fac2	1.06234
70	0xbfc22cc9	-1.5169917
71	0xbf91c42f	-1.1387995

l3.bias f4 [9]
0	0xbf51bc6a	-0.8192812
1	0xbc8c86f7	-0.0171542
2	0xbf3abdf4	-0.72946095
3	0x3ed28a64	0.4112121
4	0x3db56a3f	0.088581555
5	0x3f9a15eb	1.2037939
6	0xbf3faa7c	-0.74869514
7	0xbee75b03	-0.45186624
8	0x3e868e62	0.26280504
